initial_model_weights.pth (torch, 440276 bytes, 6 tensors)

fc1.weight f4 [128, 784]
0	0x3cc87462	0.024469558
1	0x3cd955be	0.026530143
2	0xbbfe8e88	-0.007768456
3	0x3c8be7f8	0.017078385
4	0x3b4c2160	0.0031147823
5	0x3ce6fd42	0.028196935
6	0x3c986ab6	0.018605571
7	0xbb9eb5e4	-0.0048434604
8	0x3b458620	0.003013976
9	0xbcaf0f3c	-0.021369569
10	0xbc5d76b2	-0.013517069
11	0x3cf1170e	0.029429939
12	0x3cdb9fce	0.0268096
13	0xbb644820	-0.003483303
14	0x3ceb3262	0.028710548
15	0xbc83eb45	-0.016103396
16	0xbc2f40fc	-0.010696646
17	0x3cee5e46	0.029097687
18	0xbcaa8900	-0.02081728
19	0x3ccd9f9a	0.025100518
20	0x3cd36606	0.025805485
21	0xbceaa21c	-0.028641753
22	0xbcd88e5e	-0.026435073
23	0x3c1cb318	0.009564184
24	0x3ce56356	0.028001469
25	0x3c652b3c	0.013987359
26	0xbd006b0d	-0.03135209
27	0xbbea0380	-0.0071415305
28	0xbcd828da	-0.026386667
29	0xbadf8b40	-0.001705505
30	0xbc8eec70	-0.017446727
31	0x3b3384a0	0.0027392283
32	0xbc61ec26	-0.013789212
33	0xbc5d5520	-0.013509065
34	0x3c169ed0	0.009193137
35	0x3c0881f4	0.0083317645
36	0xbcac443a	-0.021028627
37	0xbc035e38	-0.008018069
38	0xbc9172f7	-0.017755015
39	0xbce81588	-0.02833058
40	0xbc5d530a	-0.013508568
41	0xbd059aab	-0.032618206
42	0x3d0255d7	0.031820145
43	0x3d0a17eb	0.033714216
44	0xbccfccfa	-0.025366295
45	0xbd05d555	-0.032674152
46	0x3ce663ea	0.028123815
47	0xbcf59415	-0.029977838
48	0x3ac932a0	0.001535017
49	0x3c1504a8	0.009095348
50	0xbc2eea18	-0.0106759295
51	0xbc0ce6ae	-0.00859992
52	0xbcfdb73a	-0.030971158
53	0xbd09694f	-0.033547696
54	0x3c4d045c	0.012513246
55	0xbcb6c1a3	-0.02230913
56	0x3cbfb1f8	0.023400292
57	0x3c88805e	0.016662773
58	0xb9d2b580	-0.0004018955
59	0x3b748020	0.0037307814
60	0x3abf12e0	0.0014577769
61	0xbb4b4750	-0.0031017847
62	0xbc888803	-0.016666418
63	0xbc8427b3	-0.016132211
64	0x3c8862f8	0.016648754
65	0xbc7085ee	-0.014680369
66	0xbcd7a263	-0.02632255
67	0x3d0eab4f	0.03483134
68	0x3b38b480	0.0028183758
69	0xbb333ea0	-0.002735056
70	0x3c52b1d8	0.012859784
71	0xbcd65f7e	-0.026168581
72	0xbc94a15a	-0.018143345
73	0x3c2ff984	0.0107406415
74	0x3d112239	0.035433028
75	0xbd0b922d	-0.03407495
76	0x3c6d3a44	0.014479224
77	0xbc2dc340	-0.010605633
78	0xbbc141f8	-0.0058977567
79	0x3d0a9eed	0.03384297
80	0x3c7a17b0	0.015264437
81	0x3d0c2089	0.034210715
82	0x3c36f7dc	0.011167493
83	0x3ce2b362	0.027673427
84	0xbc29beee	-0.010360463
85	0x3c291a28	0.010321178
86	0xbcf8a1da	-0.030350614
87	0xbc6cde6a	-0.0144573245
88	0x3a95bac0	0.0011423454
89	0xbc82156c	-0.015879355
90	0x3c1336a4	0.008985195
91	0x3c8c80f8	0.01715134
92	0xbc705b3c	-0.0146701895
93	0x3cb5cd16	0.02219252
94	0x3ce2e1f6	0.027695637
95	0xbbbd42d4	-0.005775789
96	0x3bd095c0	0.006365508
97	0x3ccc692c	0.024952494
98	0xbca34d5e	-0.019934352
99	0x3c4afa04	0.01238871
100	0xbc68c818	-0.014207862
101	0xbcfb4275	-0.030671338
102	0xbc2efbf8	-0.010680191
103	0xba233fc0	-0.0006227456
104	0x3b48b5e0	0.0030625984
105	0x3c03f9f8	0.008055203
106	0x3afcb040	0.0019278601
107	0xbb207b90	-0.0024487711
108	0x3c2f39f0	0.010694966
109	0xbcbc1a7a	-0.022961844
110	0x3ce167a2	0.027515236
111	0xbbb132f8	-0.0054076873
112	0x3cc60d86	0.02417637
113	0x3d0fbb8d	0.03509097
114	0x3c4a8880	0.012361646
115	0xbc9efe9a	-0.019408513
116	0x3c3c4994	0.011492152
117	0x3b146e90	0.0022648908
118	0xbb842e98	-0.0040338747
119	0x3c99068e	0.018679883
120	0x3ac43720	0.0014970042
121	0xbb50f980	-0.0031886995
122	0xbc68994a	-0.014196703
123	0x3c9dbe6c	0.01925584
124	0xbc1c1cee	-0.009528382
125	0x3d0f2b51	0.03495342
126	0xbca2a99e	-0.01985627
127	0xbc5d4378	-0.013504855
128	0x3ba68a98	0.0050824396
129	0xbceed5f3	-0.029154753
130	0xbd0ac3c6	-0.03387811
131	0x3c39ccfc	0.011340376
132	0xbcd45e38	-0.025923833
133	0xb909c100	-0.00013137236
134	0xbbe46278	-0.006969746
135	0xbcf9449e	-0.030428227
136	0xbc474dea	-0.012164572
137	0xbb75f010	-0.0037527122
138	0x3d01a599	0.031652067
139	0xbbd76124	-0.0065728594
140	0x3cfcf242	0.030877236
141	0xbc248f0a	-0.010043869
142	0x3b650f20	0.0034951642
143	0xbce8a538	-0.028399095
144	0xbbadb638	-0.005301263
145	0x3c85ebac	0.016347729
146	0xbc8c8f33	-0.017158126
147	0x3ca3f3ba	0.020013679
148	0x3c021ea8	0.007941879
149	0xbd073f56	-0.033019386
150	0x3c69cf34	0.0142705925
151	0x3d10bd95	0.03533705
152	0xbcb22843	-0.021747714
153	0x3c578c20	0.013155967
154	0xbca0d560	-0.019632995
155	0xbcbd8b3c	-0.023137681
156	0x3c8502d0	0.016236693
157	0xbd0503c8	-0.03247431
158	0x3bb53100	0.005529523
159	0xbcda517a	-0.02665018
160	0xbccf00fc	-0.025269024
161	0xbc780dc0	-0.015139997
162	0x3bd102a8	0.0063784905
163	0x3b6a2790	0.0035729147
164	0x3b422d80	0.002962917
165	0xbcc6594a	-0.024212498
166	0xbbc2f8c0	-0.0059500635
167	0x3a64cac0	0.0008727722
168	0x3b06e950	0.0020585842
169	0xbc8aebc3	-0.016958123
170	0x3ca9ea7c	0.020741694
171	0xbcc62330	-0.0241867
172	0x3cf8f86e	0.030391898
173	0xbcd26548	-0.02568306
174	0xbb879930	-0.0041381344
175	0xbc52d56e	-0.012868268
176	0xbc655346	-0.013996905
177	0xbc08e1bc	-0.0083546005
178	0xbc907ae0	-0.017636716
179	0x3cb60e4a	0.02222361
180	0xbd079774	-0.03310342
181	0xbd113368	-0.035449415
182	0x3c9a4ac2	0.018834475
183	0xbd11093e	-0.035409205
184	0xbb5f1d90	-0.003404472
185	0x3cf86072	0.030319426
186	0xbd001a72	-0.03127522
187	0xbc9401c0	-0.01806724
188	0xb9d69800	-0.0004093051
189	0xbb86e218	-0.004116308
190	0xbd01d2db	-0.031695228
191	0xbce5194e	-0.027966168
192	0xbc9daef0	-0.019248456
193	0x3c9897dc	0.0186271
194	0x3b13a3b0	0.0022527985
195	0xbb0582f0	-0.0020372234
196	0x3aa978c0	0.0012929663
197	0xbd04c14c	-0.032410905
198	0xbbeb98dc	-0.007189853
199	0xbcdad545	-0.026713023
200	0xbc9d2fd7	-0.01918785
201	0x3c880b3e	0.016606923
202	0xbbcdcfb0	-0.006280862
203	0x3c7c2f08	0.0153920725
204	0x3aa72440	0.0012751892
205	0xbc421dce	-0.011847926
206	0xbb9a09f0	-0.0047008917
207	0xbc3866dc	-0.011254992
208	0x3c9961f2	0.018723462
209	0x3c7ca2d4	0.015419681
210	0x3cbcafcc	0.023033045
211	0x3c54c844	0.0129872
212	0xbbc3b9f8	-0.005973097
213	0xbbe619b8	-0.007022109
214	0xbc22dfb8	-0.009941034
215	0xbb08d090	-0.0020876266
216	0xbd08b8ce	-0.03337937
217	0x3c8a1904	0.016857632
218	0x3cb137f6	0.02163313
219	0x3cf40aba	0.029790271
220	0xbc38537c	-0.011250373
221	0xbbc1b388	-0.0059112944
222	0x3c48d458	0.012257658
223	0xbc839e0a	-0.01606657
224	0x3c6cba50	0.014448717
225	0x3d043a99	0.032282446
226	0xbc3ffc2e	-0.011717839
227	0xbd0d93c3	-0.034564745
228	0xbd0d9e9e	-0.034575097
229	0x3cea4d7a	0.028601397
230	0x3ca48b42	0.020085935
231	0xbb90f570	-0.0044237897
232	0xbc72bc46	-0.014815396
233	0xbbd9cd54	-0.0066467915
234	0xbc0d697c	-0.0086311065
235	0x3a90f920	0.0011060573
236	0xbb115630	-0.0022176616
237	0x3c21c808	0.009874351
238	0xbce7764c	-0.02825465
239	0xbc7af52a	-0.015317241
240	0x3c38a7f0	0.011270508
241	0x3c7506bc	0.014955219
242	0x3c425da8	0.01186315
243	0xbcadfcd0	-0.021238714
244	0xbc449038	-0.011997275
245	0xbb5d2d70	-0.0033749007
246	0x3cf726fe	0.03016996
247	0xb9abbf80	-0.0003275834
248	0xbcd001ac	-0.025391422
249	0x3cf9afce	0.030479338
250	0xb90d5900	-0.00013479963
251	0x3c186338	0.009300999
252	0x3d06209f	0.032745954
253	0x3bf1b3a8	0.007376153
254	0x3a93d260	0.0011277907
255	0xbc9c1cf7	-0.01905678

fc1.bias f4 [128]
0	0x3c0bf1fc	0.00854158
1	0xbcd0daf3	-0.025495028
2	0xbcb496cc	-0.022044562
3	0xbcef589a	-0.029217053
4	0x3cdfed62	0.027334873
5	0xbcc805b0	-0.024416775
6	0xbd11b8de	-0.035576694
7	0x3ace55a0	0.0015742071
8	0x3ce933a2	0.028467003
9	0x3c946f60	0.018119514
10	0xbc88368a	-0.016627569
11	0xbbe48ad4	-0.0069745574
12	0xbb39fea0	-0.0028380528
13	0x3cd3c2dc	0.025849752
14	0xbd05effb	-0.032699566
15	0x3ca7e5c0	0.020495296
16	0xbcea91e1	-0.028634014
17	0x3c911064	0.017708011
18	0x3cac470c	0.021029972
19	0x3ba63990	0.00507278
20	0x3d118731	0.03552932
21	0xbc939dd0	-0.018019587
22	0xbcc0aa1a	-0.02351861
23	0x3cecb45e	0.0288946
24	0xbcf78bd3	-0.03021804
25	0xbbd16f78	-0.006391462
26	0x3cc591ce	0.024117377
27	0xbd0a08c4	-0.033699766
28	0x3ce7321e	0.02822214
29	0xbc2585c6	-0.010102695
30	0xbc980f2c	-0.018561922
31	0x3c6c71f4	0.014431465
32	0x3c6f3b94	0.014601607
33	0xbcaff17e	-0.021477457
34	0x3d0679a1	0.032830838
35	0x3d09a80f	0.03360754
36	0xbca123e5	-0.019670436
37	0x3ca5af88	0.020225301
38	0xbb80cf28	-0.003930945
39	0x3bbb7198	0.0057203285
40	0xbcba3b90	-0.02273348
41	0xbcd8e28e	-0.026475217
42	0xbc43e326	-0.011956012
43	0xbd11af88	-0.03556779
44	0x39c07980	0.00036711618
45	0x3d00da27	0.031458046
46	0x3b48ecf0	0.0030658804
47	0x3c578170	0.013153419
48	0x3cccef52	0.02501646
49	0xbc682fa6	-0.0141715165
50	0x3d0e8ff7	0.034805264
51	0x3c90059a	0.017580796
52	0x3c6ea97c	0.014566775
53	0x3b813bf0	0.0039439127
54	0x3c2be310	0.010491148
55	0xbceb77aa	-0.028743584
56	0xbb6363d0	-0.0034696944
57	0x3d0e6e93	0.03477342
58	0x3bada608	0.0052993335
59	0xbd0652f7	-0.032793965
60	0xbd120512	-0.035649367
61	0x3c6b11f4	0.014347542
62	0xbba874c8	-0.0051408745
63	0xbcca68ac	-0.024708115
64	0xbca68710	-0.020328075
65	0x3cce7c20	0.025205672
66	0xbc05c6ca	-0.008165071
67	0xbb907c30	-0.0044093356
68	0x3d045a51	0.032312695
69	0xbcc4b15e	-0.024010357
70	0xbac2a440	-0.0014849976
71	0xbc4d991c	-0.012548711
72	0xbc707a4a	-0.0146775935
73	0xbb98f0d4	-0.004667381
74	0xbcffe4fc	-0.031237118
75	0x3b866938	0.0041018985
76	0x3ca601d6	0.020264547
77	0xbcc0dc1e	-0.02354246
78	0xbb96a2b8	-0.0045970343
79	0x3d0dd039	0.034622405
80	0x3cb0d3b8	0.02158533
81	0x3cd480ce	0.025940325
82	0x3cd8403e	0.02639782
83	0x3c099cc0	0.0083991885
84	0xbcaf93f3	-0.021432852
85	0x3bcf2c08	0.0063223876
86	0x3ce7cd9a	0.02829628
87	0xbcf332fa	-0.029687393
88	0x3c85ba4c	0.016324185
89	0x3d0d19ab	0.034448307
90	0x3ce72c52	0.028219376
91	0x3d060ddb	0.032728057
92	0xbaf43240	-0.0018630698
93	0x3d016d59	0.031598423
94	0xbd099b80	-0.033595562
95	0xbc79178a	-0.015203366
96	0xbca3acc7	-0.019979848
97	0x3ca1230a	0.019670028
98	0x3d040b6b	0.03223745
99	0x3b3dd4a0	0.0028965846
100	0xbc870195	-0.016480247
101	0x3cf713d6	0.030160826
102	0x3cc22e1c	0.023703627
103	0xbd0bf438	-0.034168452
104	0x3ca5c588	0.020235792
105	0x3d0a6ffd	0.033798207
106	0x3c995308	0.01871635
107	0xbc87cdf0	-0.01657769
108	0xbcccb1bc	-0.024987094
109	0xbcfbec61	-0.030752363
110	0x3b5cdbf0	0.003370043
111	0x3ca506d0	0.02014485
112	0x3d07fb2f	0.03319853
113	0xbc7f73b4	-0.015591551
114	0xbcc94f0e	-0.024573829
115	0xbce734bc	-0.028223388
116	0x3ceedcfe	0.029158112
117	0x3cbdee3a	0.023184884
118	0x3d11a943	0.03556181
119	0x3c990948	0.018681183
120	0xbcd26c98	-0.025686547
121	0x3bb80ee8	0.0056170113
122	0x3c3d043c	0.011536654
123	0xbc28d6f2	-0.010305153
124	0xbcd7d39e	-0.026346024
125	0x3cda1150	0.026619583
126	0xbcecdba1	-0.028913321
127	0x3b86ceb8	0.0041139983

fc2.weight f4 [64, 128]
0	0xbdb3eef2	-0.087858096
1	0xbcb20380	-0.021730185
2	0x3cee2fd0	0.029075533
3	0x3d8e3e6f	0.06945502
4	0xbb4988c0	-0.0030751675
5	0xbc6ef2c8	-0.014584251
6	0xbdabf5a4	-0.083964616
7	0x3bceb2c0	0.0063079298
8	0xbd03058e	-0.03198772
9	0xbb87c4a0	-0.0041433126
10	0xbbf817a0	-0.0075711757
11	0xbd8fff07	-0.070310645
12	0xbd883518	-0.06650752
13	0xbda2ef5a	-0.07955809
14	0x3d34e46e	0.04416316
15	0xbcbace90	-0.022803575
16	0xbd39e49e	-0.045384042
17	0xbd85a6d2	-0.06525959
18	0x3d8fae8b	0.07015713
19	0x3d8de987	0.069293074
20	0x3d80fdf7	0.0629844
21	0xbd35b381	-0.04436064
22	0xbb5bd6c0	-0.003354475
23	0x3d388926	0.04505267
24	0xbcf77606	-0.030207645
25	0x3d21861a	0.03943453
26	0x3d887d03	0.06664469
27	0x3d95bbc9	0.07311208
28	0x3c0468d0	0.00808163
29	0x3d9a8553	0.07544961
30	0xbdb1874b	-0.08668383
31	0x3caa2d5c	0.020773582
32	0x3c98d190	0.018654615
33	0x3d94cae9	0.072652645
34	0xbd0c26f9	-0.034216855
35	0xbd6ce2f8	-0.05783364
36	0x3d09825a	0.03357158
37	0xbd8b8117	-0.06811731
38	0x3d870f4f	0.06594717
39	0x3db487ed	0.08814988
40	0x3c684178	0.014175765
41	0xbd0c4947	-0.03424957
42	0x3d9b20e7	0.07574635
43	0x3db0cad3	0.08632436
44	0x3c9f8ecc	0.01947727
45	0xbd87b9f9	-0.06627268
46	0x3d8fbd27	0.070185
47	0x3d91047d	0.07080934
48	0x3da76c4f	0.08174955
49	0x3db09adf	0.08623289
50	0x3d925c5d	0.07146523
51	0x3d171196	0.036882006
52	0xbdad2283	-0.08453848
53	0xbc0bab38	-0.008524708
54	0x3d90d5d5	0.07072035
55	0x3a9c9200	0.0011945367
56	0xbb9793a0	-0.0046257526
57	0xbd0696a1	-0.032858495
58	0x3d778142	0.060426004
59	0x3d0accf4	0.033886865
60	0xbda5fb9a	-0.0810463
61	0xbd7b724e	-0.061388306
62	0xbd3ae8e0	-0.045632243
63	0x3b7fede0	0.0039051697
64	0x3ba1bdb0	0.0049359426
65	0xbd8e5294	-0.06949344
66	0xbb82fda0	-0.0039975196
67	0x3d966e31	0.07345236
68	0x3bb9d450	0.0056710616
69	0xbd315d86	-0.04330208
70	0x3d62de76	0.055387937
71	0x3da8e889	0.082474776
72	0xbd04f731	-0.032462303
73	0xbda2299d	-0.07918093
74	0x3d368002	0.04455567
75	0x3d1929a2	0.03739322
76	0xbd749c56	-0.059719406
77	0xbc1756e0	-0.009237021
78	0xbcd618ee	-0.026134934
79	0xbd849dce	-0.06475411
80	0x3d871651	0.065960534
81	0x3d52c896	0.051460825
82	0xbd27b698	-0.04094562
83	0xbb5f8a00	-0.0034109354
84	0xbc245488	-0.010029919
85	0x3da12fcb	0.07870444
86	0xbd71e3fe	-0.05905532
87	0xbd18a2f1	-0.037264768
88	0x3d08b344	0.033374086
89	0xbd8da140	-0.069155216
90	0xbd66086a	-0.056160368
91	0xbd0d184e	-0.034447007
92	0xbd84518a	-0.06460865
93	0x3d87259f	0.065989725
94	0xbd4a3760	-0.049369216
95	0x3c556a40	0.01302582
96	0xbb8b65f0	-0.0042540953
97	0xbd579505	-0.05263235
98	0xbcb2bdbc	-0.021818988
99	0xbd861495	-0.065468945
100	0x3bbfe6c0	0.005856365
101	0x3c8f3e88	0.017485872
102	0xbd3c943c	-0.046039805
103	0xbd17ad25	-0.037030358
104	0xbd463b24	-0.048396245
105	0xbd655fc5	-0.055999536
106	0xbd36b8d9	-0.04460988
107	0x3d0705b8	0.03296444
108	0x3cb6359c	0.02224236
109	0xbcaf2de8	-0.021384194
110	0x3db0629d	0.08612559
111	0x3d1b5702	0.037924774
112	0x3d16d346	0.03682258
113	0xbc8e80d0	-0.017395407
114	0x3d9c29fb	0.07625195
115	0x3d964ab9	0.07338471
116	0x3d4d745a	0.05015979
117	0x3d2721d2	0.040803738
118	0x3d1f1c9a	0.038845636
119	0xbd146468	-0.036228567
120	0xbdb1a223	-0.08673503
121	0xbd91d94c	-0.07121524
122	0xbb34e760	-0.002760373
123	0xbd80cb61	-0.062887914
124	0x3d4d4c82	0.05012179
125	0xbb0c6740	-0.0021423846
126	0xbdadf383	-0.08493712
127	0xbcfa7c92	-0.030576978
128	0x3d67d50a	0.056599654
129	0xbd52e537	-0.051488128
130	0x3d7cd0b6	0.06172248
131	0x3caa45a0	0.020785153
132	0x3d7dac1e	0.061931722
133	0x3d682c7a	0.05668304
134	0xbd742166	-0.059602164
135	0xbd83bab5	-0.06432096
136	0xbcc6c6ac	-0.024264656
137	0x3cf6fb08	0.030148998
138	0xbd9e86e8	-0.07740575
139	0x3d36d30a	0.044634856
140	0xbd9c64c1	-0.07636405
141	0x3cac9544	0.02106727
142	0xbcc5a09c	-0.024124436
143	0x3d87a6ed	0.066236354
144	0xbc1c15d8	-0.009526692
145	0xbd29a356	-0.041415535
146	0xbd9a0168	-0.075197995
147	0xbcdbc252	-0.026826058
148	0x3d2cefa2	0.04222072
149	0xbce2f3b8	-0.027704105
150	0x3d33d42e	0.043903522
151	0x3d263316	0.040576063
152	0x3daa916d	0.08328519
153	0xbdb3f0bb	-0.0878615
154	0x3d6eaac2	0.058268316
155	0xbd2e270a	-0.0425177
156	0xbd1d58c7	-0.038414743
157	0x3d289d7a	0.041165806
158	0xb997f100	-0.00028980523
159	0xbd6f464e	-0.058416657
160	0xbd744bd4	-0.059642628
161	0xbd6413c9	-0.05568293
162	0x3d546aae	0.05185955
163	0x3db1a28d	0.08673582
164	0x3d827ae3	0.06371095
165	0xbd263248	-0.040575296
166	0x3d71dc1e	0.05904781
167	0xbcd2db50	-0.025739342
168	0x3cd02a44	0.025410779
169	0xbbd62b30	-0.00653591
170	0xbda5c38f	-0.080939405
171	0xbcb85db4	-0.022505619
172	0x3cd1637c	0.025560133
173	0xbc901a88	-0.017590776
174	0x3c49b180	0.012310386
175	0xbcec0334	-0.028810121
176	0x3d1922ea	0.037386812
177	0xbda97f53	-0.08276238
178	0xbda16328	-0.07880241
179	0xbd50a278	-0.050936192
180	0x3d5fa57a	0.05460117
181	0x3c4eb2d8	0.012615882
182	0xbd9f96bf	-0.077924244
183	0x3d93e255	0.07220904
184	0x3d68a372	0.0567965
185	0x3dae7eaf	0.08520257
186	0x3d197366	0.03746357
187	0xbd38a37b	-0.045077782
188	0xbcf701dc	-0.030152254
189	0x3d012842	0.031532533
190	0x3d930a3b	0.07179686
191	0xbd244b7f	-0.04011106
192	0xbd7f53e4	-0.062335864
193	0x3c1baf00	0.0095021725
194	0x3c775ef0	0.015098318
195	0xbd3f8be6	-0.046764277
196	0x3d5c2d62	0.053754218
197	0xbd97bf7e	-0.07409571
198	0xbd8c7e40	-0.06860018
199	0x3d976811	0.07392896
200	0xbd8f4c60	-0.06996989
201	0xbd5df69a	-0.054190256
202	0xbb09d9c0	-0.002103433
203	0xbc84bcb8	-0.01620327
204	0x3d662dfe	0.056196205
205	0x3ca3ef58	0.020011589
206	0xbcd7e2c2	-0.026353244
207	0xbd69b536	-0.05705758
208	0xbd2301e5	-0.03979673
209	0x3d36e8d2	0.04465563
210	0x3d13ee58	0.036115974
211	0xbd55e8d3	-0.05222399
212	0xbda29812	-0.07939161
213	0x3c988ca0	0.018621743
214	0x3c7a3fc8	0.015273996
215	0x3b2d1a80	0.00264135
216	0x3d9d856b	0.07691463
217	0x3d0d5916	0.034508787
218	0xbd980f11	-0.07424749
219	0xbd851c50	-0.06499541
220	0x3db280f5	0.08716003
221	0xbdb321da	-0.08746691
222	0x3d64e4aa	0.055882134
223	0xbdac5c7d	-0.08416078
224	0x3ca1e9ac	0.019764744
225	0x3d9aa325	0.075506486
226	0x3d50d86a	0.05098764
227	0x3d3b3096	0.045700632
228	0xbceee2ca	-0.029160876
229	0x3d42c20e	0.047548346
230	0xbd84eb72	-0.0649022
231	0x3d2c9e0e	0.04214292
232	0xbc60dd78	-0.013724677
233	0xbd5c5717	-0.053793993
234	0xbc9ff330	-0.01952514
235	0x3d2f64de	0.042820804
236	0x3d9ee3eb	0.07758316
237	0x3c75b588	0.014996894
238	0x3be85240	0.007089883
239	0xbc96cb74	-0.01840756
240	0xbdb2bf84	-0.08727935
241	0xbda02d3b	-0.07821127
242	0x3cf759a0	0.030194104
243	0xbab9bf40	-0.0014171377
244	0xbb84fa00	-0.0040581226
245	0x3cd3e5b4	0.025866367
246	0x3d9db201	0.07699967
247	0xbd0df626	-0.034658574
248	0x3d04b840	0.032402277
249	0x3d7c61ee	0.06161683
250	0x3d4d6036	0.050140582
251	0x3d3bff3a	0.0458977
252	0x3d0991ea	0.03358642
253	0xbc95c438	-0.018282041
254	0x3d64bcf2	0.055844255
255	0xbd2d9fa9	-0.042388592

fc2.bias f4 [64]
0	0x3b76d740	0.003766492
1	0x3da96ba1	0.08272482
2	0x3d08f2e8	0.03343478
3	0x3d2f6c66	0.042827986
4	0xbcbafe7c	-0.022826426
5	0x3d60404e	0.054748826
6	0x3d199242	0.037492998
7	0x3d8691f1	0.06570805
8	0x3d60de7a	0.05489967
9	0x3d9a628b	0.07538327
10	0x3d778c7a	0.060436703
11	0xbcc398a8	-0.023876503
12	0x3da9de6d	0.082943775
13	0x3d748df2	0.059705682
14	0x3cf4f404	0.029901512
15	0x3d5f69f2	0.054544397
16	0x3d34acee	0.04411023
17	0xbd7e53c8	-0.06209162
18	0x3b326d80	0.0027225912
19	0xbcf6e714	-0.030139484
20	0x3c88c354	0.016694702
21	0xbd98571b	-0.07438489
22	0x3c64fad8	0.013975821
23	0xbd0d8419	-0.034549806
24	0xbd255098	-0.040360063
25	0x3cbeddd0	0.023299128
26	0x3d739d42	0.059476145
27	0x3d76a802	0.06021882
28	0xbd194150	-0.037415802
29	0xbd4c1acb	-0.04983024
30	0xbc0ea788	-0.008706935
31	0xbcd39c34	-0.02583132
32	0x3c1db700	0.00962615
33	0xbd56a911	-0.052407328
34	0x3cd57948	0.026058808
35	0xbd3a5ab1	-0.045496646
36	0x3ce932e8	0.028466657
37	0xbae8ad80	-0.0017751902
38	0xbd9ac50e	-0.075571164
39	0x3d6a9926	0.05727496
40	0x3bff98d0	0.007800199
41	0x3d5c63c2	0.053806074
42	0xba11cb00	-0.00055615604
43	0xbd24b58a	-0.04021219
44	0xbd593579	-0.05302951
45	0x3d8f318b	0.069918714
46	0xbd87ecd7	-0.066369705
47	0xbdacde1b	-0.08440801
48	0xbd954901	-0.07289315
49	0x3d47fce6	0.048825167
50	0x3db19e4b	0.0867277
51	0xbce3c7ce	-0.027805235
52	0x3bc59de0	0.006030783
53	0xbd593264	-0.053026572
54	0x3da46ae9	0.08028204
55	0x3b64b280	0.0034896433
56	0x3d65ea0a	0.0561314
57	0xbd8d9d34	-0.0691475
58	0xbd8a76b7	-0.06760924
59	0x3da9a7f7	0.0828399
60	0x3cb7cbec	0.022436105
61	0x3d463386	0.04838898
62	0x3c91f6c0	0.017817855
63	0x3b8aba80	0.0042336583

fc3.weight f4 [10, 64]
0	0x3d6656d8	0.056235164
1	0xbd8adf0c	-0.06780824
2	0xbdb38828	-0.08766204
3	0x3d978b0c	0.07399568
4	0xbc9522b0	-0.018205017
5	0x3c91f2b8	0.017815933
6	0x3d782760	0.060584426
7	0x3cfa3b50	0.03054586
8	0x3ca3ba20	0.019986212
9	0x3d3bbafc	0.04583262
10	0xbde1c462	-0.11023785
11	0x3d05a4d0	0.03262788
12	0x3d1d1644	0.038351312
13	0x3d5297a4	0.051414147
14	0xbc806218	-0.015671775
15	0xbcae4fb8	-0.021278247
16	0xbd885c5a	-0.0665824
17	0xbddca680	-0.10773945
18	0x3c04c5c0	0.008103788
19	0xbc956328	-0.018235758
20	0x3d049748	0.032370836
21	0xbdf80170	-0.12109649
22	0x3df268a2	0.118363634
23	0xbc4756b0	-0.012166664
24	0x3c751090	0.014957562
25	0x3dd779fe	0.10521315
26	0xbdf46fdc	-0.11935398
27	0xbc25ab90	-0.0101117045
28	0xbdee6ef8	-0.11642259
29	0xbd9c31e2	-0.07626702
30	0x3b39b4c0	0.0028336495
31	0x3d453688	0.04814771
32	0x3d8a906a	0.06765826
33	0x3da1881a	0.078872874
34	0xb6b28000	-5.3197145e-06
35	0x3dba0864	0.09083632
36	0x3de4ed66	0.11178093
37	0xbdbcf2a6	-0.09225969
38	0x3d4c46e4	0.049872294
39	0xbd2cd9d4	-0.042199925
40	0x3ded2c2e	0.11580692
41	0xbdcf6626	-0.10126905
42	0x3c215ed0	0.009849265
43	0x3dbc4c46	0.091942355
44	0x3cb528c8	0.022114173
45	0xbdbdb99a	-0.09263916
46	0x3da06a06	0.07832722
47	0x3c60b3e0	0.013714761
48	0x3cb50760	0.022098243
49	0xbd71bec8	-0.059019834
50	0xbd74b60c	-0.059743926
51	0x3dc65ff8	0.09686273
52	0xbdbdbd64	-0.09264639
53	0xbd18e7fc	-0.037330613
54	0xbba0c160	-0.0049058646
55	0xbda18988	-0.0788756
56	0x3cc9f5c8	0.02465333
57	0xbd56d7b4	-0.052451804
58	0x3debec2a	0.11519654
59	0x3db196e8	0.08671361
60	0xbd297c14	-0.041378096
61	0x3d393c7c	0.045223698
62	0xbcc605a8	-0.024172619
63	0xbca30a50	-0.019902378
64	0xbd638a04	-0.055551544
65	0x3d437cc8	0.047726423
66	0xbdc62754	-0.0967547
67	0xbde76396	-0.112982914
68	0x3d984776	0.07435505
69	0xbd98f912	-0.074693814
70	0x3d7c098c	0.061532542
71	0x3dcbbef2	0.09948529
72	0x3d36a098	0.044586748
73	0xbdda69ae	-0.10664688
74	0x3df2dbce	0.11858331
75	0xbde56b40	-0.11202097
76	0xbce92908	-0.028461948
77	0x3dde49d6	0.10853927
78	0xbd90eee0	-0.07076812
79	0xbdace026	-0.084411904
80	0xbc4f67b0	-0.012658998
81	0xbdd0a1a0	-0.101870775
82	0x3b633380	0.0034668148
83	0x3cca5588	0.024698988
84	0xbdb7d1fc	-0.08975598
85	0xbdb90bc8	-0.0903545
86	0x3dd71c1a	0.10503407
87	0xbd54aa24	-0.05192007
88	0x3d331500	0.0437212
89	0xbbb59aa0	-0.0055421144
90	0x3deaf0d8	0.114717185
91	0xbdfdc5b4	-0.123912245
92	0xbd15af74	-0.03654428
93	0x3dac66b6	0.08418028
94	0xbd4fdd2c	-0.050748035
95	0x3dd2a588	0.10285479
96	0x3b9d4260	0.0047991723
97	0x3d1bba40	0.03801942
98	0xbdae9110	-0.08523762
99	0xbde14a4a	-0.11000498
100	0xbba05fe0	-0.0048942417
101	0xbdbfb11a	-0.09359951
102	0x3c29ff80	0.010375857
103	0xbdec44ba	-0.11536546
104	0x3df74152	0.12073006
105	0xbdae64a8	-0.085152924
106	0x3cfe5708	0.03104736
107	0xbdc21fde	-0.094787344
108	0xbdae38fe	-0.08506964
109	0xbdcea442	-0.100899234
110	0x3ddaa664	0.10676268
111	0xbdbacfea	-0.09121688
112	0x3d310e6c	0.043226644
113	0xbcdc6338	-0.02690278
114	0xbdc4f528	-0.09617072
115	0xbdc3eade	-0.09566282
116	0xbd9bda20	-0.076099634
117	0xbdfbe010	-0.12298596
118	0xbd149db8	-0.036283225
119	0x3d152d2c	0.036420032
120	0x3dcbf154	0.09958139
121	0x3de17bf4	0.1100997
122	0x3d3e1960	0.04641092
123	0x3dbb5804	0.09147647
124	0x3def4552	0.11683144
125	0xbc901938	-0.01759015
126	0xbcad04f0	-0.021120518
127	0xbd0cd89c	-0.034386262
128	0xbddacc26	-0.106834695
129	0xbdb50d36	-0.088404104
130	0xbdb28320	-0.08716416
131	0xbc3de560	-0.011590332
132	0x3d9292c4	0.071568996
133	0x3de0602c	0.10955843
134	0x3bcfe3a0	0.0063442737
135	0xbdc89ef2	-0.097959414
136	0x3dbc1d42	0.09185268
137	0xbdacd194	-0.08438411
138	0x3d883c42	0.06652118
139	0xbdd50e6a	-0.1040314
140	0x3d284f44	0.04109122
141	0xbd891e54	-0.06695238
142	0x3d9760c2	0.07391502
143	0x3dbb3b2a	0.09142144
144	0xbd30d03c	-0.043167338
145	0xbd31f264	-0.043444052
146	0x3d11dd30	0.03561133
147	0xbdaab936	-0.083361074
148	0xbc3cdf40	-0.011527836
149	0xbd59efc8	-0.05320719
150	0xbd925f60	-0.071470976
151	0x3d260d84	0.040540233
152	0xbdb2f0ca	-0.08737333
153	0xbdaf8054	-0.085693985
154	0x3ca43788	0.02004601
155	0xbd7c7f14	-0.06164463
156	0x3d31aa48	0.043375283
157	0x3c8d8830	0.017276853
158	0x3dd59d94	0.10430446
159	0xbd8a8d2a	-0.06765206
160	0xbdae3b3e	-0.08507393
161	0xbd4f8a64	-0.05066909
162	0x3c8f21d0	0.017472178
163	0xbd841dac	-0.06450972
164	0xbdaaee96	-0.08346288
165	0x3d9ca36c	0.07648358
166	0xbc8dd8d0	-0.017315298
167	0x3b9cf6e0	0.004790172
168	0xbde37b38	-0.111074865
169	0xbd129d30	-0.035794437
170	0x3caff3d0	0.021478564
171	0xbd834e12	-0.06411375
172	0x3df30434	0.11866036
173	0x3c5b7c70	0.013396367
174	0xbdb9e348	-0.090765536
175	0xbdac0436	-0.08399241
176	0x3d1cceac	0.038283035
177	0xbdf3102a	-0.118683174
178	0xbdf0b802	-0.11753847
179	0xbdaa6680	-0.083203316
180	0xbca51510	-0.020151645
181	0x3cfab348	0.030603066
182	0xbd6779c8	-0.056512624
183	0x3dd9fa86	0.10643487
184	0xbd950056	-0.07275455
185	0x3df03430	0.11728704
186	0x3cbd4868	0.023105815
187	0x3da173ce	0.07883416
188	0xbdb8ac64	-0.09017256
189	0x3cd2f630	0.025752157
190	0x3de2dfce	0.110778436
191	0x3d16d648	0.03682545
192	0x3d3eded4	0.046599224
193	0xbd9b5bbc	-0.07585856
194	0xbd11c718	-0.03559026
195	0x3de23854	0.110459
196	0xbd8c7d4e	-0.068598375
197	0x3dd412e4	0.103551656
198	0x3dddcd54	0.10830179
199	0xbdaaaae2	-0.083333746
200	0xbd5295f0	-0.051412523
201	0x3dba9dde	0.09112142
202	0x3d63a638	0.05557844
203	0x3d96cbc0	0.07363081
204	0x3ddc7608	0.107647
205	0x3dd694a0	0.10477567
206	0x3cb3b370	0.021936148
207	0x3de70920	0.11281037
208	0xbd91f736	-0.0712723
209	0x3db2a106	0.08722119
210	0x3c1e8190	0.009674445
211	0xbccd0b38	-0.025029764
212	0xbda576d8	-0.08079308
213	0x3daee7f2	0.08540334
214	0x3d5f41ec	0.054506227
215	0x3dd8b998	0.10582274
216	0x3dabb30e	0.08383761
217	0x3da75b66	0.0817173
218	0x3de9be8a	0.114132956
219	0x3da260b4	0.07928601
220	0xbc29e240	-0.010368884
221	0x3d57db28	0.052699238
222	0xbde30c58	-0.11086339
223	0x3dfb1cea	0.12261374
224	0xbba96820	-0.0051698834
225	0xbddb641a	-0.10712452
226	0x3daedadc	0.08537838
227	0xbd3f7014	-0.046737745
228	0xbdc48426	-0.09595518
229	0x3c6e10b0	0.014530346
230	0x3d674b08	0.05646804
231	0x3dbca268	0.09210664
232	0x3cafcef8	0.021460995
233	0xbdcc7dee	-0.09984957
234	0x3db06bfc	0.086143464
235	0xbceae540	-0.028673768
236	0xbd5c2f58	-0.053756088
237	0xbdff070e	-0.124525174
238	0xbcf26048	-0.029586926
239	0xbd253ab4	-0.040339187
240	0xbd95614e	-0.0729395
241	0x3dbe3e7e	0.09289263
242	0xbdc4739e	-0.09592365
243	0xbd41a278	-0.047274083
244	0x3debb5e4	0.11509302
245	0xbc53e740	-0.012933552
246	0x3d78e6a8	0.060766846
247	0xbd306ca0	-0.043072343
248	0xbba15080	-0.0049229264
249	0x3dddf65a	0.108380035
250	0xbd5ed544	-0.054402605
251	0xbd830ce8	-0.06398946
252	0xbd480810	-0.048835814
253	0x3d889a66	0.06670074
254	0xbc564b60	-0.013079494
255	0xbd71e6e4	-0.059058085

fc3.bias f4 [10]
0	0xbd97f01a	-0.074188426
1	0x3de34f4a	0.110991076
2	0x3c021aa0	0.007940918
3	0x3db6fef2	0.08935346
4	0xbd69bf7c	-0.05706738
5	0x3c6445d0	0.01393266
6	0xbc794f40	-0.015216649
7	0xbde58a16	-0.112079784
8	0x3d52e0ec	0.051484033
9	0x3ab8a800	0.0014088154
